Titanic/best_model.pth (torch, 132969 bytes, 9 tensors)

rnn.weight_ih_l0 f4 [200, 9]
-0.13997033 0.047605895 0.3251982 0.001871672 0.090726554 0.16358045 -0.06522626 -0.09826944
0.09954399 -0.13277748 0.1270859 -0.13144663 -0.029567815 -0.11913554 -0.28227937 0.16262397
-0.041253693 -0.16065261 0.08758123 0.3696611 -0.21770208 0.002367714 0.29740244 -0.17707288
-0.083914846 0.18642077 -0.13399695 -0.2717664 -0.09721379 0.16266188 0.03765061 0.05676816
-0.16179483 0.04127331 0.0524408 -0.045267474 -0.015871959 -0.20762609 0.09448876 -0.07856293
-0.05663742 0.041625526 -0.004946378 0.0044412618 -0.07756722 0.12770088 0.005101999 0.15998016
0.15111743 0.15247634 -0.07377226 0.17031394 0.044962037 0.076908305 -0.11580114 0.051405437
0.048925404 0.22315623 0.0016656219 -0.123753846 0.13980888 0.07200239 -0.11931672 -0.054906897
0.07657998 0.18471745 0.047370724 0.22737435 -0.12844689 0.16167176 -0.0029741721 -0.025638334
0.095927306 0.047637165 -0.14027925 0.026600849 0.15492281 -0.13030286 0.06851566 0.06109388
-0.0806942 0.05384031 -0.21882793 0.13486747 -0.020828048 -0.02350625 0.055260293 -0.012845505
0.028399833 -0.13745835 0.048300084 0.10584415 -0.2312526 0.0028840164 0.058285408 -0.31632304
0.1287484 0.12192451 -0.2058851 0.028698301 -0.08035319 -0.016303955 -0.19173685 -0.17278999
-0.0878465 -0.052721012 -0.16233753 0.01300787 -0.20842874 -0.047074135 0.17451851 0.037978232
-0.23111089 -0.02162763 0.05125966 -0.10359852 0.11757028 -0.19077797 -0.30819166 0.49884728
-0.00071015005 -0.08517502 0.17255668 -0.08072415 -0.073141925 0.07977869 -0.32038766 -0.17454438
0.24532954 -0.11045364 -0.1540746 0.009573519 0.008743669 -0.15722804 0.09738459 -0.13749142
0.28275692 -0.2502097 -0.1618579 -0.1020471 -0.15003218 -0.027519511 -0.09718938 -0.19834915
-0.08173518 0.05353046 0.060862094 0.11393858 0.19783328 0.06732993 0.05645036 0.1517854
-0.057569284 0.18625753 0.30064443 -0.09175872 -0.010145537 0.17652479 -0.2773809 0.035995316
-0.10354692 -0.22258717 -0.025713308 -0.2246874 0.27819645 -0.08336047 -0.19203441 0.044364218
0.03578041 -0.13210289 0.020148007 0.24808234 -0.053978257 -0.019652352 0.17360401 0.21749206
-0.20993158 0.0805759 0.112274036 -0.15037413 0.06969103 -0.35896543 0.29335526 0.1642198
-0.065252446 -0.056111023 0.19175519 0.13515458 0.07517121 0.14937001 0.1847005 -0.30336806
0.13417001 -0.06741147 -0.22443348 0.1632937 0.17852873 -0.040664274 0.016405277 -0.17978097
0.03211884 0.045043264 0.18425319 0.122581534 0.1624857 0.047565542 -0.16547237 -0.2763134
-0.0977013 0.16694416 0.14344294 -0.0027060003 0.0861692 -0.046671588 0.06046993 0.02000257
-0.084648676 -0.30890015 -0.30431506 0.33077222 0.34973136 -0.114258155 0.14092043 0.20696513
-0.08138691 -0.034449738 0.10894998 -0.008867093 0.108770534 0.033548508 -0.06252229 0.006171367
0.2100333 -0.023001827 -0.22195922 -0.28332248 -0.00067925546 -0.08092306 -0.036406867 -0.0028133686
-0.009153416 -0.12964697 -0.06946422 0.14250758 -0.13019285 -0.1713668 0.2391555 0.08407409
-0.26991728 0.12656435 0.12598996 -0.08813472 -0.079702616 -0.2688146 0.18732049 0.12470289
00000000: 6254 0fbe 66fe 423d 6180 a63e e452 f53a
00000010: d8ce b93d a281 273e 5895 85bd 7d41 c9bd
00000020: b8dd cb3d d2f6 07be ce22 023e f299 06be
00000030: 3438 f2bc 56fd f3bd ec86 90be e686 263e
00000040: a2f9 28bd 1e82 24be ca5d b33d 3844 bd3e
00000050: 4bed 5ebe a62b 1b3b 2245 983e 9852 35be
00000060: 8cdb abbd 16e5 3e3e 7f36 09be f724 8bbe
00000070: 0618 c7bd d690 263e 8737 1a3d bb85 683d
00000080: 8bad 25be 340e 293d 2acc 563d 636a 39bd
00000090: e905 82bc ef9b 54be 5383 c13d 9ae5 a0bd
000000a0: a4fc 67bd 877f 2a3d 3a15 a2bb 0188 913b
000000b0: 90db 9ebd 05c4 023e ab2e a73b d7d1 233e
000000c0: 87be 1a3e c222 1c3e e915 97bd c766 2e3e
000000d0: 1d2a 383d 1a82 9d3d 2629 edbd 828e 523d
000000e0: 0166 483d 1183 643e ff50 da3a a872 fdbd
000000f0: 0f2a 0f3e fd75 933d 535c f4bd 0ee6 60bd
00000100: f7d5 9c3d 9226 3d3e ce07 423d d2d4 683e
00000110: 9587 03be 488d 253e 54ea 42bb 7c07 d2bc
00000120: 8975 c43d 301f 433d 5da5 0fbe 06ea d93c
00000130: 16a4 1e3e 1d6e 05be f051 8c3d 943d 7a3d
00000140: 0043 a5bd a887 5c3d 6e14 60be b31a 0a3e
00000150: 959f aabc 2e90 c0bc 9e58 623d f475 52bc
00000160: c4a6 e83c e2c1 0cbe 4fd6 453d d1c4 d83d
00000170: 7bcd 6cbe c401 3d3b aebc 6e3d 18f5 a1be
00000180: 9fd6 033e 8fb3 f93d 8bd3 52be b318 eb3c
00000190: 3790 a4bd df8f 85bc aa56 44be dcef 30be
000001a0: dee8 b3bd fdf1 57bd cf3b 26be f61e 553c
000001b0: 586e 55be cfd0 40bd fbb4 323e 108f 1b3d
000001c0: 55a8 6cbe 6d2c b1bc a6f5 513d 762b d4bd
000001d0: b0c8 f03d 4d5b 43be 4ccb 9dbe e968 ff3e
000001e0: 5d29 3aba 3e70 aebd b3b2 303e b452 a5bd
000001f0: 6fcb 95bd 0363 a33d da09 a4be c3bb 32be
00000200: ab37 7b3e 8535 e2bd bbc5 1dbe 40da 1c3c
00000210: 9b41 0f3c 6300 21be 9271 c73d 8dca 0cbe
00000220: 84c5 903e 7c1b 80be 14be 25be 12fe d0bd
00000230: 09a2 19be 9970 e1bc 3a0b c7bd 0a1c 4bbe
00000240: c664 a7bd c142 5b3d 884a 793d a158 e93d
00000250: cf94 4a3e 46e4 893d 7e38 673d a26d 1b3e
00000260: c5cd 6bbd 4bba 3e3e 11ee 993e ffeb bbbd
00000270: 7739 26bc eac2 343e df04 8ebe d36f 133d
00000280: 6810 d4bd e4ed 63be b7a4 d2bc 7414 66be
00000290: c46f 8e3e e5b8 aabd aba4 44be 41b7 353d
000002a0: 7b8e 123d fb45 07be 6f0d a53c 4c09 7e3e
000002b0: 4e18 5dbd f8fd a0bc 40c5 313e 3db6 5e3e
000002c0: 4ef8 56be fa04 a53d eeef e53d adfb 19be
000002d0: 2cba 8e3d 51ca b7be a932 963e 3c29 283e
000002e0: 13a3 85bd acd4 65bd 795b 443e f665 0a3e
000002f0: 5df3 993d 74f4 183e 2122 3d3e 0f53 9bbe
00000300: dd63 093e 060f 8abd e4d1 65be 7736 273e
00000310: 3cd0 363e 958f 26bd 5c64 863c 8118 38be
00000320: 0b8f 033d 497f 383d deac 3c3e 070c fb3d
00000330: a762 263e 16d4 423d 9771 29be f378 8dbe
00000340: 9f17 c8bd 69f3 2a3e b5e2 123e 2757 31bb
00000350: 7a79 b03d b52a 3fbd 51af 773d 6edc a33c
00000360: 495c adbd 2928 9ebe 2fcf 9bbe fa5a a93e
00000370: fd0f b33e 2e00 eabd 724d 103e abee 533e
00000380: 2eae a6bd 2b1b 0dbd 2b21 df3d 4947 11bc
00000390: 16c3 de3d 296a 093d b00b 80bd 2e39 ca3b
000003a0: f812 573e 546e bcbc 4749 63be a50f 91be
000003b0: 1010 32ba fdba a5bd 5e1f 15bd 7e60 38bb
000003c0: 36f8 15bc 2dc2 04be 4243 8ebd 82ed 113e
000003d0: 4651 05be c77a 2fbe 2ee5 743e 092f ac3d
000003e0: 9932 8abe 169a 013e 8303 013e fa7f b4bd
000003f0: 203b a3bd 11a2 89be f1d0 3f3e 3b64 ff3d

rnn.weight_hh_l0 f4 [200, 50]
0.088884234 -0.10155619 -0.08289633 0.058439694 -0.030587083 -0.072802074 0.05998038 0.1243877
0.037102666 0.12648843 -0.0721082 -0.013771147 -0.11706777 -0.030637102 0.014594342 -0.14061841
0.0056348653 -0.10931693 -0.083390646 0.13424331 0.13046345 -0.05037206 -0.03524559 -0.10160965
-0.025298277 0.011821972 0.102583244 0.10300082 -0.0125813065 -0.02317738 0.032443296 0.0829386
0.014875208 0.013772141 0.018503444 -0.07376857 0.03542271 0.09481581 0.07152343 -0.06776005
-0.04352792 0.0368702 -0.1099364 -0.038840212 -0.0028958428 0.12539652 -0.06255368 -0.004824685
-0.09810691 -0.03503629 0.060270317 0.12753066 0.09338294 -0.069336995 0.08510999 -0.067752965
-0.00090804545 -0.07602368 -0.01578784 0.13189566 0.11454656 -0.022042617 0.003876937 0.05585599
-0.009642609 0.042343255 0.11219507 0.06437517 0.1010771 -0.06473985 0.08560533 -0.05715064
0.091421574 0.04719021 0.0055329036 0.08303749 0.012811698 -0.06055255 -0.0867326 -0.11146684
-0.03385161 0.10514267 -0.14027362 -0.03587056 -0.057215326 0.015673403 0.08027461 -0.06862905
0.009314842 0.112153105 -0.08709954 0.03896274 0.0042496836 -0.10211956 -0.07461581 -0.077649
0.10937736 0.08237769 0.00436606 0.008692012 -0.08550863 0.07383294 0.12349547 0.10115883
-0.052467197 -0.1090557 0.026326912 -0.053228557 0.096519224 -0.10950988 -0.012147869 0.11447029
-0.062236853 -0.12565768 -0.06284394 0.073552676 -0.12003086 0.029371971 0.11060291 0.037138574
-0.034344524 -0.107423976 0.0044462904 -0.12707141 0.057120327 0.12475067 -0.006910718 0.027620029
0.07113739 0.0016071437 -0.047211234 0.113708615 0.07397651 0.042229913 -0.0956719 -0.13967626
0.12555367 0.07188125 -0.020989198 -0.080086924 -0.033291526 0.09368259 0.12015753 -0.12867594
0.08189441 -0.13862635 -0.0363025 0.03327573 0.004673074 -0.012005008 -0.013582784 -0.039222214
0.097232915 -0.05931451 0.037870225 -0.10269534 0.06824497 0.0072500673 0.056285974 -0.021949895
0.042285126 0.11604293 -0.019840663 0.06703033 0.11187681 0.028541105 0.06050944 0.13851239
-0.06114151 0.08463475 -0.019811278 0.12673075 -0.0657695 -0.1173765 0.0693079 -0.02679287
0.099053495 0.06702909 0.08056151 0.02137115 0.006082229 0.00919619 -0.013159949 0.0111161815
-0.04918074 0.013642953 0.11482661 -0.045216724 0.074457265 -0.023664428 0.0077849277 -0.07378875
0.11340239 -0.046235684 -0.103000835 0.031246748 0.058215827 0.027343258 -0.039466143 -0.018445417
-0.033203844 0.033886775 -0.018621169 0.06966086 0.08957996 0.030674882 -0.043266725 0.04414434
-0.06046677 -0.009057932 -0.11688234 0.11103267 -0.079334855 0.04468549 -0.017115481 0.037413068
0.10636213 -0.109502375 0.023466794 -0.06666692 -0.024087228 0.051527325 0.11799319 -0.010368109
0.01856454 0.05802598 0.041964117 0.018626766 -0.10869744 0.081711665 -0.002971842 -0.08775502
0.01579207 0.043134183 0.13188988 0.10535998 -0.004538002 0.119120724 0.0985594 -0.015503416
-0.06904608 0.017030159 -0.04512712 -0.0039888793 -0.10937446 0.0679402 0.022545952 -0.03588951
0.07426418 0.03228034 0.05963707 -0.10511261 -0.033281613 0.13882488 -0.030431645 0.057041816
00000000: f008 b63d b1fc cfbd 8dc5 a9bd 765e 6f3d
00000010: c391 fabc 4119 95bd fdad 753d fabe fe3d
00000020: f7f8 173d 2f86 013e 77ad 93bd 60a0 61bc
00000030: 3ac1 efbd a9fa fabc 1b1d 6f3c 46fe 0fbe
00000040: ada4 b83b 8ee1 dfbd b7c8 aabd 1477 093e
00000050: 3698 053e ef52 4ebd ae5d 10bd b818 d0bd
00000060: 553e cfbc f2b0 413c 2a17 d23d 18f2 d23d
00000070: d321 4ebc 7dde bdbc 43e3 043d b6db a93d
00000080: 25b7 733c 8ca4 613c 8994 973c fa13 97bd
00000090: 6717 113d cb2e c23d e07a 923d c8c5 8abd
000000a0: 554a 32bd 3505 173d 5626 e1bd ea16 1fbd
000000b0: 2ec8 3dbb f267 003e 251c 80bd 6418 9ebb
000000c0: 47ec c8bd 3682 0fbd 02de 763d 6697 023e
000000d0: 8e3f bf3d 8e00 8ebd 254e ae3d 11c2 8abd
000000e0: e609 6eba 4eb2 9bbd 8055 81bc a80f 073e
000000f0: 6397 ea3d b892 b4bc 3614 7e3b 40c9 643d
00000100: 09fc 1dbc 1f70 2d3d 87c6 e53d 21d7 833d
00000110: 8301 cf3d 5496 84bd d951 af3d ca16 6abd
00000120: 3c3b bb3d 864a 413d 5c4d b53b 8f0f aa3d
00000130: 28e8 513c f305 78bd dda0 b1bd ba48 e4bd
00000140: fca7 0abd 0a55 d73d e3a3 0fbe 02ed 12bd
00000150: 9e5a 6abd 8265 803c 0467 a43d 638d 8cbd
00000160: 479d 183c 87b0 e53d 3e61 b2bd 6597 1f3d
00000170: ee40 8b3b 0f24 d1bd 2cd0 98bd 7006 9fbd
00000180: 3d01 e03d a2b5 a83d 2a11 8f3b f168 0e3c
00000190: 261f afbd b935 973d 31eb fc3d 5c2c cf3d
000001a0: d8e7 56bd 9858 dfbd 89ab d73c 3006 5abd
000001b0: dfab c53d b746 e0bd db07 47bc 666f ea3d
000001c0: 12ec 7ebd 68ac 00be 53b4 80bd c9a2 963d
000001d0: bdd2 f5bd 7d9d f03c c783 e23d 9e1e 183d
000001e0: d8ac 0cbd 1a01 dcbd 30b2 913b 021f 02be
000001f0: 01f7 693d 477d ff3d 4e73 e2bb 6643 e23c
00000200: 7bb0 913d cba6 d23a 9160 41bd 10e0 e83d
00000210: ff80 973d 46f9 2c3d a1ef c3bd 4b07 0fbe
00000220: 2491 003e 7a36 933d 8af1 abbc 9d04 a4bd
00000230: b25c 08bd a8dc bf3d 2715 f63d a0c3 03be
00000240: 42b8 a73d 11f4 0dbe eeb1 14bd 224c 083d
00000250: 9620 993b a7b0 44bc 538a 5ebc 79a7 20bd
00000260: 0d22 c73d c6f3 72bd cf1d 1b3d ef51 d2bd
00000270: 05c4 8b3d f991 ed3b 1f8c 663d 44d0 b3bc
00000280: 2b33 2d3d eaa7 ed3d e388 a2bc 3347 893d
00000290: ab1f e53d 09cf e93c bfd8 773d 31d6 0d3e
000002a0: 856f 7abd fc54 ad3d 434b a2bc b5c5 013e
000002b0: 29b2 86bd 1763 f0bd 4df1 8d3d b97c dbbc
000002c0: 8fdc ca3d 8c46 893d 6ffd a43d 8d12 af3c
000002d0: 6f4d c73b 9eab 163c d49c 57bc a520 363c
000002e0: be71 49bd b186 5f3c 372a eb3d 2c35 39bd
000002f0: 0d7d 983d e7db c1bc b518 ff3b 8e1e 97bd
00000300: 833f e83d a161 3dbd 1af2 d2bd 2ef9 ff3c
00000310: b873 6e3d f8fe df3c 40a7 21bd d81a 97bc
00000320: c100 08bd dccc 0a3d 6c8b 98bc 5aaa 8e3d
00000330: b375 b73d e449 fb3c 7338 31bd b2d0 343d
00000340: 01ac 77bd b867 14bc 0260 efbd 1965 e33d
00000350: 507a a2bd 2208 373d c435 8cbc 723e 193d
00000360: 63d4 d93d c842 e0bd 6f3d c03c ab88 88bd
00000370: 9452 c5bc 510e 533d 6aa6 f13d 00df 29bc
00000380: aa14 983c a6ac 6d3d 91e2 2b3d 2997 983c
00000390: c39c debd 7258 a73d 3cc3 42bb e7b8 b3bd
000003a0: 5f5e 813c 78ad 303d 240e 073e f9c6 d73d
000003b0: 85b3 94bb 91f5 f33d 83d9 c93d 0a02 7ebc
000003c0: 0868 8dbd d582 8b3c 37d7 38bd 25b5 82bb
000003d0: b8ff dfbd 3b24 8b3d 4ab2 b83c e100 13bd
000003e0: d217 983d 6438 043d 0046 743d 4845 d7bd
000003f0: 4d52 08bd 1c28 0e3e c94b f9bc aea4 693d

rnn.bias_ih_l0 f4 [200]
0.09616851 -0.0194432 0.022410147 0.09046688 0.12815805 0.07177734 0.1928605 0.07064779
0.081325576 0.089588396 0.14905803 0.027034301 0.16131012 0.23083034 0.0136494255 -0.033908643
0.04738212 0.18554153 0.20720895 0.10285581 0.20451544 0.09899088 0.35228828 0.2317425
0.061541513 -0.00500666 0.042062894 -0.041904744 0.1444427 0.14577472 0.21248215 0.09424779
0.08724988 0.060290452 0.15757388 0.005540364 0.030289436 -0.05812642 0.017339796 -0.007337991
0.021546094 0.13261062 0.22052442 0.13575076 0.19752692 0.18634473 0.0586381 0.057619825
0.030451769 0.14111294 0.095849656 0.0067436816 0.011695447 0.10868435 0.054033846 0.03925384
0.014306428 0.008467605 0.028072719 -0.13253973 0.08575003 -0.03528949 -0.098508045 0.05031901
-0.13053113 0.05935086 -0.0022611953 0.09923412 0.13867033 -0.0067975116 0.019352434 0.06768326
0.12564158 -0.09819904 0.034162704 -0.06909661 -0.1148793 0.13857728 -0.13276578 0.012820246
-0.081752114 -0.09227969 -0.03685297 0.06832335 -0.10074579 -0.032933667 -0.005721418 0.044688843
-0.071309894 -0.086811185 0.10948285 -0.10898385 -0.09545532 -0.013950152 -0.10080588 0.03500982
-0.061354503 0.104404226 -0.046948995 0.0073854937 -0.057462588 -0.01463126 0.012075294 -0.03377756
-0.045889154 0.115822226 0.16408956 0.14449212 -0.18608958 0.16927998 0.19670653 0.12213968
-0.04669205 -0.007998017 0.032601792 0.027777292 0.0054508983 0.06689393 0.05686516 0.19438909
-0.031060884 -0.124561414 0.1492858 -0.009030311 -0.050409704 0.1962923 0.0049186284 0.16314226
0.052327674 -0.016736979 -0.1250353 -0.033559993 0.12351429 -0.0725666 -0.08522878 -0.136104
0.004248178 -0.1256952 -0.096731655 -0.18917091 0.14778037 -0.058480456 -0.02470421 0.19019952
0.11056158 -0.07428391 -0.11892058 -0.009049466 -0.09633443 -0.073800646 0.22426027 -0.010680678
0.0016469123 0.17481062 0.20970206 0.12811078 0.18042971 0.10113604 -0.08177057 0.2568814
0.20742896 0.20763105 0.21171607 0.087115474 0.24227343 0.027115334 0.030235223 0.0049566943
0.17618077 0.1099274 0.13433766 0.19872493 0.27527452 0.046343923 0.091557 0.014143189
0.1411345 0.03979267 0.1102873 0.16870886 0.08410538 0.11788129 0.24342345 0.18410109
0.03716676 -0.065248184 0.22632115 0.058000915 0.09114496 0.053821765 0.1621221 0.1409484
0.038586646 0.1644496 0.0044908146 0.27399275 0.13051896 0.00016617862 -0.03275061 0.22827892
00000000: fff3 c43d 5947 9fbc 7c95 b73c b346 b93d
00000010: dd3b 033e ffff 923d 397d 453e caaf 903d
00000020: 068e a63d 1f7a b73d aba2 183e 0a77 dd3c
00000030: 7b2e 253e ca5e 6c3e d7a1 5f3c cae3 0abd
00000040: c113 423d 99fe 3d3e 952e 543e 11a6 d23d
00000050: 7f6c 513e bbbb ca3d 215f b43e e84d 6d3e
00000060: f412 7c3d e80e a4bb 244a 2c3d 4fa4 2bbd
00000070: cae8 133e f845 153e ec94 593e fc04 c13d
00000080: 11b0 b23d 1ff3 763d 0c5b 213e f18b b53b
00000090: 8d21 f83c f815 6ebd 300c 8e3c 8873 f0bb
000000a0: 6f81 b03c 14cb 073e 27d1 613e 3f02 0b3e
000000b0: 7f44 4a3e 27d1 3e3e 812e 703d c402 6c3d
000000c0: fd75 f93c e97f 103e d34c c43d 1afa dc3b
000000d0: 439e 3f3c e795 de3d 9852 5d3d a2c8 203d
000000e0: 8265 6a3c b6bb 0a3c c2f8 e53c 7fb8 07be
000000f0: b69d af3d b68b 10bd 96be c9bd 4e1b 4e3d
00000100: f4a9 05be e319 733d 9030 14bb 423b cb3d
00000110: 98ff 0d3e a9bd debb ff88 9e3c 859d 8a3d
00000120: 30a8 003e 941c c9bd 31ee 0b3d 8682 8dbd
00000130: d745 ebbd 34e7 0d3e c1f3 07be 020c 523c
00000140: a76d a7bd 22fd bcbd 24f3 16bd 1ded 8b3d
00000150: cf53 cebd 74e5 06bd bc7a bbbb a60b 373d
00000160: ec0a 92bd 10ca b1bd 8b38 e03d ed32 dfbd
00000170: 147e c3bd 2e8f 64bc 5073 cebd 7566 0f3d
00000180: dc4e 7bbd e2d1 d53d 974d 40bd 0302 f23b
00000190: e45d 6bbd f4b7 6fbc 74d7 453c 575a 0abd
000001a0: 44f6 3bbd 3434 ed3d 1807 283e bef5 133e
000001b0: 448e 3ebe bb57 2d3e 706d 493e 5e24 fa3d
000001c0: 2a40 3fbd 1d0a 03bc 7589 053d 348d e33c
000001d0: 739d b23b afff 883d 71eb 683d ef0d 473e
000001e0: 6573 febc 0e1a ffbd 60de 183e dff3 13bc
000001f0: 687a 4ebd d900 493e 722c a13b c40e 273e
00000200: 8b55 563d fd1b 89bc 4109 00be 3476 09bd
00000210: 0ff5 fc3d cc9d 94bd 6d8c aebd d95e 0bbe
00000220: 4d34 8b3b 3eb6 00be 3f1b c6bd 05b6 41be
00000230: bd53 173e 3489 6fbd 7c60 cabc aac3 423e
00000240: 1c6e e23d 2a22 98bd a28c f3bd 3644 14bc
00000250: fc4a c5bd cb24 97bd 7ca4 653e 03fe 2ebc
00000260: 35dd d73a 8e01 333e 23bc 563e 792f 033e
00000270: 91c2 383e 6a20 cf3d 5477 a7bd f585 833e
00000280: 4268 543e 3c9d 543e 19cc 583e 9969 b23d
00000290: 8716 783e fa20 de3c dcaf f73c c46b a23b
000002a0: bb68 343e 9e21 e13d d08f 093e 8c7e 4b3e
000002b0: c8f0 8c3e 20d3 3d3d 3d82 bb3d d6b8 673c
000002c0: 9085 103e a4fd 223d 4fde e13d 04c2 2c3e
000002d0: 713f ac3d bf6b f13d ff43 793e ff84 3c3e
000002e0: 2c3c 183d d7a0 85bd bbc0 673e 5e92 6d3d
000002f0: 35aa ba3d 3674 5c3d 5603 263e c754 103e
00000300: 080d 1e3d 7a65 283e af27 933b c748 8c3e
00000310: c3a6 053e 3c40 2e39 8125 06bd f3c1 693e

rnn.bias_hh_l0 f4 [200]
0.10995853 0.13785775 -0.019072387 0.28800884 0.21136989 0.07068818 -0.019165296 0.15294406
0.038020577 0.17289111 0.07977108 0.041043106 -0.01596715 0.14328013 0.03423425 0.1723689
0.10441703 -0.08184412 0.044633813 0.11769403 -0.0011098929 -0.018480057 0.25281388 0.16655445
0.052760284 -0.005488013 0.2504097 0.19493894 0.032002542 -0.040999018 0.16890581 0.08362182
0.10835864 0.2368363 -0.049165625 -0.030622397 0.17867264 -0.045898728 0.013275007 0.2323433
0.17941406 0.031059917 0.05371111 -0.017047226 0.17272916 0.19809583 0.29796743 0.14350516
0.22145677 0.23128289 -0.004886101 -0.011965339 0.08570685 0.083711654 -0.11581909 0.087009236
0.113194354 0.009029862 -0.08984697 0.1270839 0.03568623 0.031388495 0.013243906 0.013201354
-0.12670931 -0.13159917 -0.10009034 -0.016908625 0.091189265 0.044259503 -0.060937483 -0.040718224
0.09919742 0.012363239 0.1177827 -0.04470852 0.070216924 -0.07863058 -0.10935489 -0.012928698
-0.046754733 0.056734312 0.06554368 0.053347327 -0.13423221 -0.1321738 -0.12104403 -0.07868734
-0.13107091 0.12705083 -0.10913504 -0.06792862 0.06549992 0.118292466 0.037105024 -0.052104753
0.059857074 -0.0018697354 0.12693512 0.07587322 -0.1210774 0.13854225 -0.025511473 0.05520108
0.057433352 0.1847208 0.13752653 0.06845254 0.012078994 0.09889609 0.14936888 0.1651668
0.062591046 -0.026041329 -0.13424686 -0.21001588 0.18877192 0.10473225 0.058340017 0.04722454
-0.13412069 -0.110315576 0.004477052 0.060892783 0.00048724128 0.07327116 -0.09149317 -0.065814175
-0.072107844 0.11939711 -0.13564314 -0.047643267 0.18004705 0.07179789 -0.13065478 -0.09386673
-0.09005195 0.00866489 0.123391286 -0.16794792 -0.014318406 -0.11886482 -0.058311842 -0.028081171
0.0870346 0.053153355 0.021198474 -0.08042374 0.073953345 0.08295687 0.16076137 0.056143254
-0.07572488 0.07349457 0.017395448 0.1874783 0.025323572 0.04416917 0.00930032 0.07101771
0.07164466 0.096315846 0.22731023 0.19287443 0.25968674 0.2376816 -0.11840997 0.20257081
0.020569025 0.030263543 0.11453591 0.056155693 0.30947235 0.060413025 0.20566715 -0.03195374
0.055585936 0.0013185098 0.2054632 0.033774365 0.0048115086 0.22506991 0.15984151 0.09125608
-0.060683552 -0.11420366 0.2501963 0.17273574 0.16261785 0.017272616 -0.008022998 0.23418292
0.23779261 -0.014495842 0.06849293 0.030037483 0.17952432 0.03526252 0.18210918 0.16552992
00000000: f031 e13d 952a 0d3e b23d 9cbc e575 933e
00000010: 5971 583e f7c4 903d 8a00 9dbc 5e9d 1c3e
00000020: 77bb 1b3d 5e0a 313e 055f a33d d11c 283d
00000030: 8acd 82bc 07b8 123e 3739 0c3d 7981 303e
00000040: 99d8 d53d e49d a7bd f2d1 363d 9109 f13d
00000050: d379 91ba 7d63 97bc d270 813e 408d 2a3e
00000060: 2b1b 583d cad4 b3bb b335 803e 139e 473e
00000070: 1915 033d 96ee 27bd a5f5 2c3e eb41 ab3d
00000080: 22eb dd3d 3785 723e e561 49bd d2db fabc
00000090: f6f5 363e 4e00 3cbd 6a7f 593c 67eb 6d3e
000000a0: 52b8 373e 5e71 fe3c 2e00 5c3d a0a6 8bbc
000000b0: eadf 303e a2d9 4a3e 308f 983e 04f3 123e
000000c0: 90c5 623e 6cd5 6c3e 961b a0bb 450a 44bc
000000d0: 1387 af3d 0471 ab3d 8f32 edbd e631 b23d
000000e0: 71d2 e73d fcf1 133c b001 b8bd 4822 023e
000000f0: b92b 123d 3991 003d f8fc 583c 7e4a 583c
00000100: 16c0 01be efc1 06be 2afc ccbd f583 8abc
00000110: 70c1 ba3d 7449 353d 9599 79bd 27c8 26bd
00000120: 0428 cb3d 2f8f 4a3c 0e38 f13d 4820 37bd
00000130: e4cd 8f3d 1209 a1bd 75f5 dfbd e4d2 53bc
00000140: e481 3fbd 3d62 683d c43b 863d ba82 5a3d
00000150: 2b74 09be 9258 07be efe5 f7bd d426 a1bd
00000160: 7437 06be 9d19 023e 3182 dfbd 291e 8bbd
00000170: d224 863d 5243 f23d 70fb 173d cb6b 55bd
00000180: b12c 753d e911 f5ba 48fb 013e 6b63 9b3d
00000190: 6ef7 f7bd 05de 0d3e 70fd d0bc 871a 623d
000001a0: 3c3f 6b3d 7327 3d3e c1d3 0c3e d830 8c3d
000001b0: f9e6 453c 098a ca3d 28f4 183e 7c21 293e
000001c0: bc2f 803d a054 d5bc 0278 09be 670e 57be
000001d0: 6d4d 413e dd7d d63d f1f5 6e3d 856e 413d
000001e0: ef56 09be 22ed e1bd 3cb4 923b b66a 793d
000001f0: 6b74 ff39 310f 963d c560 bbbd 95c9 86bd
00000200: 47ad 93bd 7986 f43d 09e6 0abe 9625 43bd
00000210: 415e 383e c60a 933d 5eca 05be 333d c0bd
00000220: 286d b8bd 2ff7 0d3c 92b4 fc3d 8afa 2bbe
00000230: bf97 6abc 666f f3bd 66d8 6ebd 7c0a e6bc
00000240: 323f b23d 55b7 593d 6ca8 ad3c 34b5 a4bd
00000250: da74 973d 4be5 a93d a19e 243e 78f6 653d
00000260: a515 9bbd 5284 963d e680 8e3c 50fa 3f3e
00000270: 6173 cf3c bbea 343d 5f60 183c bc71 913d
00000280: 6fba 923d 3e41 c53d 03c4 683e e080 453e
00000290: a9f5 843e ce62 733e ed80 f2bd b96e 4f3e
000002a0: 5f80 a83c 40eb f73c ce91 ea3d 8303 663d
000002b0: 2973 9e3e a673 773d 699a 523e ede1 02bd
000002c0: 14ae 633d d9d1 ac3a f264 523e fd56 0a3d
000002d0: dca9 9d3b ba78 663e 7ead 233e 78e4 ba3d
000002e0: 518f 78bd 9ce3 e9bd bb19 803e a3e1 303e
000002f0: 4b85 263e 4d7f 8d3c e572 03bc a6cd 6f3e
00000300: e87f 733e f87f 6dbc 0546 8c3d 2b11 f63c
00000310: 39d5 373e 6f6f 103d d47a 3a3e ad80 293e

rnn.weight_ih_l1 f4 [200, 50]
0.037758026 -0.016420748 -0.21447715 0.17402686 0.053728767 0.17366011 -0.041399773 -0.012117687
-0.027458582 0.1066611 0.08017299 -0.017079825 -0.031183446 -0.074246585 -0.1370547 0.050051384
0.017288469 0.18679793 0.22249606 0.04016892 -0.14450933 -0.122969046 0.20157059 -0.10281193
-0.054125626 0.010049139 -0.20635645 0.15232092 -0.09461433 -0.07141291 -0.09634115 0.02825493
0.11288075 -0.11521407 -0.256678 -0.20155491 -0.06485826 0.102242865 0.20233226 -0.22190759
0.022800447 -0.08648467 -0.063810796 -0.012643998 0.01032332 0.24341582 -0.12242938 -0.04350022
-0.15432487 0.08916853 0.16230519 -0.06452121 0.14026931 0.29611897 0.06853022 0.15347454
-0.06515448 0.03693552 -0.023244858 0.29317728 0.16577648 -0.12505756 -0.054872476 -0.19594541
-0.13939646 -0.06252069 0.24563526 -0.07377391 0.26406264 0.1696519 -0.1925188 -0.07133667
0.23040222 -0.12686624 -0.117670946 0.022449354 -0.124259844 -0.17298773 -0.28995138 -0.202688
0.11368062 0.29232788 0.108885914 -0.25430217 0.024704004 -0.17454945 0.032718766 0.00037971121
0.055690583 -0.07553437 0.086903274 -0.078177586 -0.1620136 0.04391034 0.099315405 0.18448468
0.27163598 0.18863568 -0.24962556 0.18000846 0.027665671 0.15349498 0.032334704 -0.18047893
-0.02614812 0.0980064 0.05842558 0.21308844 -0.14215013 0.1490933 0.17427331 0.037239723
-0.06633186 -0.17259137 0.10003571 -0.083334185 -0.044904366 0.12680614 -0.062853634 0.27524647
0.0036321539 -0.18196575 0.235034 0.19073384 0.06711299 -0.012336894 -0.06501908 0.05241054
-0.12737772 0.023279862 -0.109974325 -0.13493128 0.11411317 -0.051984753 -0.017212762 -0.06585784
-0.16260286 -0.15848382 -0.018948989 -0.081799924 0.09039313 -0.17429715 0.18046948 0.0766014
0.13541341 -0.0143596195 -0.13895716 0.045408346 -0.014789931 -0.096591406 -0.00943081 -0.0010174253
-0.24436708 0.0040811193 -0.063896656 0.21594036 -0.037625384 0.07942531 -0.17828858 0.08474755
0.17789756 0.15994029 0.16130716 -0.018786773 -0.055903163 -0.20084776 0.023072097 0.12620537
0.09299745 0.0010721926 -0.037325397 -0.16904168 0.11701006 0.07072182 0.06447929 -0.022587001
-0.100458756 0.05348627 0.081825785 -0.042629756 0.047482565 -0.03943278 0.205421 0.062236138
-0.07082927 -0.064112276 -0.22825141 -0.11741637 -0.055371054 -0.08005096 -0.1364831 -0.23204218
0.06693156 0.235649 0.12686402 -0.05103376 -0.027176768 -0.020048168 0.20074168 -0.18009387
0.15370363 -0.15333156 0.0736096 0.2829732 0.05995649 0.095836274 0.09149373 0.06547469
-0.19658518 0.2919516 0.16073951 -0.11589619 -0.107504 -0.36023968 -0.19467159 -0.12859383
0.074631944 0.1683749 0.250601 0.19078858 -0.2286333 -0.19120868 0.38982373 -0.10311714
-0.03522173 0.2295936 -0.07840374 -0.0075033815 -0.11260357 -0.06525714 0.052965727 0.17645144
0.28042656 -0.27990273 -0.041429855 -0.10016326 0.19775705 0.20513125 0.19880112 -0.15039435
0.075327694 0.07647198 -0.27041593 0.03324264 0.09500866 0.11908451 0.11607822 0.16865236
-0.10329443 0.16229507 0.09490698 0.013286297 -0.09752829 0.26848388 0.044193443 -0.07273739
00000000: 29a8 1a3d ce84 86bc e69f 5bbe 1934 323e
00000010: b212 5c3d f5d3 313e cf92 29bd 4389 46bc
00000020: d2f0 e0bc 2371 da3d bd31 a43d fdea 8bbc
00000030: 6d74 ffbc 980e 98bd 1158 0cbe ae02 4d3d
00000040: 8ca0 8d3c f547 3f3e 02d6 633e 2a88 243d
00000050: 41fa 13be 32d7 fbbd 8568 4e3e 108f d2bd
00000060: d5b2 5dbd 25a5 243c 1b4f 53be 04fa 1b3e
00000070: 28c5 c1bd ef40 92bd 824e c5bd e276 e73c
00000080: 062e e73d 5bf5 ebbd 4c6b 83be 6964 4ebe
00000090: 68d4 84bd b564 d13d 3030 4f3e be3b 63be
000000a0: 01c8 ba3c e01e b1bd 3caf 82bd c528 4fbc
000000b0: 2423 293c ff41 793e 41bc fabd 492d 32bd
000000c0: 5707 1ebe fe9d b63d 5533 263e b223 84bd
000000d0: c2a2 0f3e e89c 973e 9259 8c3d 6e28 1d3e
000000e0: b66f 85bd b349 173d 006c bebc 551b 963e
000000f0: 4fc1 293e 170f 00be f6c1 60bd eaa5 48be
00000100: f2bd 0ebe d90a 80bd cf87 7b3e c716 97bd
00000110: 3833 873e 3ab9 2d3e a623 45be f618 92bd
00000120: 8fee 6b3e 39e9 01be 77fd f0bd b5e7 b73c
00000130: f27b febd b223 31be 8274 94be 718d 4fbe
00000140: 63d1 e83d 00ac 953e 94ff de3d e533 82be
00000150: 0d60 ca3c 17bd 32be 1d04 063d fa13 c739
00000160: cf1b 643d c4b1 9abd 58fa b13d 921b a0bd
00000170: e5e6 25be 54db 333d e065 cb3d 8de9 3c3e
00000180: df13 8b3e b629 413e d89d 7fbe 2354 383e
00000190: 1ea3 e23c ca2d 1d3e 6571 043d 78cf 38be
000001a0: 9534 d6bc 94b7 c83d a94f 6f3d db33 5a3e
000001b0: ce8f 11be eaab 183e b474 323e ae88 183d
000001c0: 00d9 87bd cbbb 30be 86df cc3d 1dab aabd
000001d0: a4ed 37bd 78d9 013e 68b9 80bd 1bed 8c3e
000001e0: 6e09 6e3b 3b55 3abe c1ac 703e bb4f 433e
000001f0: 8972 893d af20 4abc b928 85bd 6fac 563d
00000200: 4e6f 02be 69b5 be3c 383a e1bd 6d2b 0abe
00000210: 2ab4 e93d f7ed 54bd c701 8dbc 7ae0 86bd
00000220: 5d81 26be 9549 22be e93a 9bbc b886 a7bd
00000230: 0920 b93d f47a 32be fecc 383e 32e1 9c3d
00000240: d0a9 0a3e 9c44 6bbc c94a 0ebe 1afe 393d
00000250: 7751 72bc b7d1 c5bd af83 1abc 215b 85ba
00000260: 5d3b 7abe e9ba 853b 40dc 82bd 781f 5d3e
00000270: 131d 1abd bda9 a23d 4891 36be 2090 ad3d
00000280: c72a 363e 63c7 233e b42d 253e b8e6 99bc
00000290: b7fa 64bd 09ab 4dbe b201 bd3c fb3b 013e
000002a0: 7275 be3d d088 8c3a 84e2 18bd 4319 2dbe
000002b0: f8a2 ef3d 9ad6 903d b80d 843d 6008 b9bc
000002c0: 52bd cdbd 6b14 5b3d 4794 a73d 8a9c 2ebd
000002d0: 147d 423d 4484 21bd e259 523e 52eb 7e3d
000002e0: f00e 91bd 4c4d 83bd bdba 69be fe77 f0bd
000002f0: c2cc 62bd c2f1 a3bd 3ac2 0bbe 779c 6dbe
00000300: 6a13 893d f94d 713e a4e8 013e c708 51bd
00000310: d0a1 debc 0e3c a4bc 3a8f 4d3e 876a 38be
00000320: 7c64 1d3e f302 1dbe a1c0 963d dde1 903e
00000330: f094 753d cf45 c43d 1161 bb3d 9817 863d
00000340: a04d 49be ae7a 953e e698 243e fb5a edbd
00000350: 0f2b dcbd 5671 b8be fd57 47be 1aae 03be
00000360: a2d8 983d 786a 2c3e c64e 803e 155e 433e
00000370: d91e 6abe 35cc 43be fa96 c73e 142f d3bd
00000380: a944 10bd 961a 6b3e 2492 a0bd edde f5bb
00000390: b39c e6bd 89a5 85bd 97f2 583d b0af 343e
000003a0: 1294 8f3e 694f 8fbe 5ab2 29bd 6522 cdbd
000003b0: d380 4a3e ed0d 523e 8592 4b3e fa00 1abe
000003c0: 6845 9a3d 579d 9c3d f573 8abe 6f29 083d
000003d0: e693 c23d 94e2 f33d 6bba ed3d 34b3 2c3e
000003e0: 088c d3bd ae30 263e 975e c23d c5ae 593c
000003f0: e9bc c7bd b876 893e 2f04 353d 57f7 94bd

rnn.weight_hh_l1 f4 [200, 50]
-0.121960945 -0.13729617 -0.075363606 0.06033453 -0.11425136 0.0483155 0.0043069697 -0.04273023
0.08267715 -0.10334649 0.0032785698 0.042655848 0.031892017 -0.045736413 0.022011647 0.098740734
-0.009320489 -0.024066156 -0.09878618 -0.09612692 0.018989583 -0.13970345 -0.11279807 -0.11625897
-0.07139628 -0.078508206 -0.12693755 0.09649442 0.09979391 0.080379695 0.13538735 -0.076822296
-0.057134926 -0.11346844 -0.105243616 -0.05673654 -0.07279385 0.06738577 0.0351806 0.13473801
0.017087648 -0.066701554 -0.104587965 0.08052198 0.024690047 -0.034497887 -0.11902886 -0.021444723
-0.022461371 -0.08104627 0.042971868 -0.031602416 0.12714176 -0.009395494 0.059907448 0.0020007784
-0.13049164 0.030003265 0.019402673 -0.074715085 -0.044393025 0.099225335 -0.006152867 0.026487373
0.039899006 -0.064203024 0.034985613 -0.008415917 -0.13670707 -0.059669353 0.048549276 0.07068526
-0.09543529 -0.06221342 -0.09572947 -0.116116785 -0.047140107 -0.091341764 -0.041954912 -0.04340524
-0.11607364 0.0112485895 0.038065635 0.059969254 0.09367471 -0.060693268 -0.13551527 -0.08198056
0.027192997 0.038390268 0.02389713 0.07701167 -0.02276987 0.083714046 -0.11810163 0.13648589
0.072222285 0.11694557 0.03796789 0.08700639 -0.11518156 0.074348055 0.123915486 -0.14038105
0.11175581 -0.057833232 -0.105195805 -0.07913339 -0.0967379 -0.11365053 0.045531396 0.12802197
-0.03719989 -0.013083023 -0.029175669 0.11798323 -0.037396528 0.027520342 -0.049346965 0.06722188
0.06803525 0.13448124 -0.109536886 0.06492626 0.09209326 0.13019772 -0.07509451 0.051545464
0.030793753 0.029674973 -0.00666952 -0.10823133 -0.04527076 -0.073705606 0.09592367 0.0356794
-0.09004997 0.070462085 0.1330752 0.024733592 0.019857472 -0.06836253 0.002151445 -0.013435691
0.022985071 0.13003664 -0.035767857 0.047595493 -0.00013640407 0.054050453 0.03595762 0.10090681
0.05790871 -0.11689823 0.060844827 -0.061353963 0.044415362 -0.059025787 0.035435792 0.11492379
-0.072681196 -0.071579106 0.035926413 0.05798459 0.110836506 0.07325416 0.057210285 -0.12781504
-0.09340374 0.13598381 -0.13562612 0.06999215 -0.0759553 0.0025460238 -0.13809596 -0.036259305
-0.12439132 0.110866584 -0.13824984 -0.032893274 0.071909204 -0.073754884 -0.0069135167 0.09453372
-0.140665 0.09983006 0.12942432 0.14020446 -0.12536654 -0.13949183 -0.09209488 -0.09639494
0.11389753 0.0052122674 0.06299096 -0.10961966 0.03378444 -0.00437255 -0.052910753 -0.0242369
0.029653866 0.046835266 0.00591027 0.016163098 0.053451445 -0.027574476 -0.09600139 -0.0945685
0.12233761 -0.08364043 0.12692772 0.012556457 -0.10698214 -0.10035332 0.051197834 0.09473058
0.086380325 -0.07044782 0.014311621 0.13980018 -0.053543307 -0.042446498 0.102559894 0.033655744
-0.035214063 0.056397963 -0.04825211 -0.13469455 -0.08320085 -0.02149545 0.010441781 -0.1341674
0.122753575 0.08082754 -0.10644358 0.09726788 0.03696277 -0.12190846 -0.07365231 -0.028884232
0.14030243 0.02988999 0.11718837 -0.045335814 -0.1309918 0.032119375 0.11309428 0.13400029
0.12379 0.11173806 -0.09627664 -0.1337524 0.13429949 -0.0028137744 0.14095868 0.09157917
00000000: a9c6 f9bd 5e97 0cbe 3c58 9abd 5721 773d
00000010: 9efc e9bd 79e6 453d 7b21 8d3b e505 2fbd
00000020: a352 a93d 53a7 d3bd 46dd 563b e6b7 2e3d
00000030: 34a1 023d 1b56 3bbd c551 b43c 9538 ca3d
00000040: f7b4 18bc 6326 c5bc 6950 cabd 31de c4bd
00000050: 0b90 9b3c 6c0e 0fbe ad02 e7bd 2f19 eebd
00000060: 3638 92bd e9c8 a0bd ebfb 01be de9e c53d
00000070: c060 cc3d 1c9e a43d fba2 0a3e 0255 9dbd
00000080: 5006 6abd 2462 e8bd f789 d7bd 9364 68bd
00000090: f114 95bd 8d01 8a3d 8819 103d c3f8 093e
000000a0: 65fb 8b3c d39a 88bd 3732 d6bd b5e8 a43d
000000b0: c842 ca3c a84d 0dbd 67c5 f3bd d8ac afbc
000000c0: e900 b8bc 96fb a5bd 4503 303d 8971 01bd
000000d0: 7331 023e 8fef 19bc 8361 753d 7e1f 033b
000000e0: 9a9f 05be 68c9 f53c 5bf2 9e3c 3904 99bd
000000f0: 76d5 35bd a736 cb3d fd9d c9bb 0cfc d83c
00000100: 246d 233d e07c 83bd 134d 0f3d eae2 09bc
00000110: f0fc 0bbe da67 74bd 9bdb 463d 6fc3 903d
00000120: 9473 c3bd 80d3 7ebd d00d c4bd a3ce edbd
00000130: fc15 41bd 6411 bbbd ead8 2bbd b1c9 31bd
00000140: 04b8 edbd 014c 383c b6ea 1b3d 52a2 753d
00000150: 87d8 bf3d 8199 78bd 84c4 0abe 6de5 a7bd
00000160: d9c3 de3c 1d3f 1d3d eac3 c33c 4bb8 9d3d
00000170: e187 babc 4572 ab3d 44df f1bd f5c2 0b3e
00000180: 47e9 933d 2981 ef3d 3884 1b3d 6830 b23d
00000190: 4fe4 ebbd cb43 983d 67c7 fd3d 0dc0 0fbe
000001a0: 3be0 e43d 8ae2 6cbd e670 d7bd b010 a2bd
000001b0: 851e c6bd 9cc1 e8bd 217f 3a3d 3118 033e
000001c0: e95e 18bd 2d5a 56bc d001 efbc 31a1 f13d
000001d0: 1a2d 19bd 5772 e13c 0b20 4abd a0ab 893d
000001e0: 1156 8b3d 73b5 093e e054 e0bd 0ff8 843d
000001f0: 649b bc3d 8d52 053e 27cb 99bd 5621 533d
00000200: 2e43 fc3c ee18 f33c fd8b dabb 63a8 ddbd
00000210: d56d 39bd f7f2 96bd a173 c43d 9024 123d
00000220: 1e6c b8bd 6d4e 903d dd44 083e 1a9e ca3c
00000230: 23ac a23c a701 8cbd 42ff 0c3b 5f21 5cbc
00000240: 304b bc3c 5328 053e 5181 12bd 7ef3 423d
00000250: b007 0fb9 0264 5d3d 4c48 133d 3ba8 ce3d
00000260: af31 6d3d 5768 efbd 6d38 793d 4b4e 7bbd
00000270: e2ec 353d 06c5 71bd 1f25 113d 2a5d eb3d
00000280: e1d9 94bd 1198 92bd 9327 133d 4081 6d3d
00000290: 40fe e23d 4706 963d 5555 6a3d f2e1 02be
000002a0: 764a bfbd 573f 0b3e 93e1 0abe 0b58 8f3d
000002b0: 748e 9bbd 31db 263b 0769 0dbe a384 14bd
000002c0: e0c0 febd 050e e33d 5e91 0dbe 19bb 06bd
000002d0: 2245 933d cd0c 97bd c88a e2bb e59a c13d
000002e0: 7c0a 10be b473 cc3d cf87 043e c291 0f3e
000002f0: 1660 00be f2d6 0ebe 3e9c bcbd b66a c5bd
00000300: 1c43 e93d abcb aa3b 6801 813d 4680 e0bd
00000310: 8e61 0a3d 9c47 8fbb f2b8 58bd 778c c6bc
00000320: aaec f23c 56d6 3f3d f0aa c13b 7968 843c
00000330: e7ef 5a3d dee3 e1bc 609c c4bd 21ad c1bd
00000340: 248c fa3d ac4b abbd 57f9 013e 99b9 4d3c
00000350: 7419 dbbd 0b86 cdbd d2b4 513d 1b02 c23d
00000360: 2be8 b03d f246 90bd 4a7b 6a3c c727 0f3e
00000370: 3a50 5bbd 61dc 2dbd ec0a d23d 9bda 093d
00000380: 9f3c 10bd 8d01 673d 01a4 45bd 5eed 09be
00000390: 3565 aabd 3a17 b0bc 0114 2b3c 2e63 09be
000003a0: 3a66 fb3d e988 a53d 17ff d9bd 6234 c73d
000003b0: 4666 173d 25ab f9bd 06d7 96bd a09e ecbc
000003c0: 71ab 0f3e dadb f43c 7500 f03d 0cb2 39bd
000003d0: b722 06be 9b8f 033d f99d e73d 5f37 093e
000003e0: 9d85 fd3d edd6 e43d b02c c5bd 64f6 08be
000003f0: ce85 093e 4d67 38bb 7957 103e dc8d bb3d

rnn.bias_ih_l1 f4 [200]
0.059609447 0.22665453 0.22288859 0.24165086 0.035611432 0.2307708 0.22016995 0.17192861
0.10194812 0.03101854 0.031247001 0.27395836 0.17577913 -0.001148627 0.08071525 0.025666982
0.021439826 0.15492657 0.019751137 0.13294922 0.025105892 0.061010424 0.21539204 0.103655435
0.22961402 0.07548443 0.21325906 0.23411332 -0.015223352 0.061612505 0.15438339 0.10531767
0.031145211 0.09119114 0.17544015 0.025590511 0.14125597 0.12899546 -0.00030347364 0.09306258
0.109870374 0.064426094 0.11388694 0.1403779 0.14840615 0.07365844 0.23218618 0.13566841
0.17121163 -0.018484911 0.018733937 -0.10848297 0.10851995 -0.08138821 -0.097161606 -0.09306448
-0.082813926 0.06668277 -0.08029524 -0.11437666 -0.12341587 0.012127065 0.114753686 0.038114205
-0.13295382 0.058494568 0.008590692 0.09617544 -0.08070124 0.09068156 0.043526687 -0.09933289
-0.12849714 -0.07094146 -0.054085147 -0.087526195 0.12070096 -0.029384227 0.12429037 -0.12481724
0.040460404 -0.029579975 0.12359712 -0.09369096 -0.061832126 -0.11516716 0.14043717 0.029240422
0.12309151 0.0005157089 0.137958 -0.068818696 -0.050540414 -0.112966605 0.08233443 -0.11642698
-0.102931984 -0.06458243 0.13092227 0.09448595 -0.061585117 -0.1058479 -0.11425717 -0.13475244
-0.057024866 -0.020361884 0.13953944 0.10420242 0.046994273 -0.0139377145 0.09997262 -0.057461124
-0.067578435 0.07489496 0.032656424 -0.15249485 0.089305595 0.090352155 0.02732462 0.009397517
-0.014667054 -0.12870789 0.14706446 -0.15552604 -0.00682492 0.03328263 -0.039970383 -0.040418994
0.10215797 0.020011945 -0.051625315 -0.009573139 0.117848374 0.047510874 -0.036022466 -0.010064928
0.10980659 -0.17547834 -0.014546866 -0.12509346 -0.09934611 0.08037441 -0.16736603 0.07279361
0.093619116 -0.034442525 -0.049186043 -0.057060212 -0.0408992 0.0067095193 0.1424081 0.056568854
0.10862204 0.004428757 0.18192652 0.011090765 0.10774456 -0.0032426314 0.19175418 -0.00951621
0.0043682284 0.23886593 0.1543869 0.034968022 0.05067466 -0.0007508793 0.1667053 0.20382813
0.10314922 -0.005261181 0.15128222 0.12589793 0.08262145 0.076161325 0.1335531 0.18011662
0.25980684 0.19696009 -0.00029388344 0.18118711 0.1592713 0.11021828 0.10764296 0.12604102
0.12935261 0.17268252 0.120966606 -0.02386557 -0.009578794 0.06513529 0.037194226 0.19471844
0.1948974 0.2681599 0.09388907 0.15001357 0.032020107 0.23038775 0.15357822 0.015683971
00000000: 0929 743d 2018 683e e83c 643e 5373 773e
00000010: 4bdd 113d 2e4f 6c3e 3b74 613e 0e0e 303e
00000020: 2dca d03d 981a fe3c b6f9 ff3c 4544 8c3e
00000030: 72ff 333e 878d 96ba 094e a53d 9043 d23c
00000040: 93a2 af3c 12a5 1e3e 23cd a13c d723 083e
00000050: dfaa cd3c 11e6 793d bb8f 5c3e 4d49 d43d
00000060: f01f 6b3e 9597 9a3d 9560 5a3e 67bb 6f3e
00000070: 5e6b 79bc 655d 7c3d ae16 1e3e cab0 d73d
00000080: 3e24 ff3c 6cc2 ba3d 95a6 333e 31a3 d13c
00000090: 68a5 103e 6317 043e 8b1b 9fb9 9897 be3d
000000a0: b803 e13d d4f1 833d 8e3d e93d 39bf 0f3e
000000b0: c8f7 173e 3cda 963d 37c2 6d3e a9ec 0a3e
000000c0: 1a52 2f3e ab6d 97bc ea77 993c 522c debd
000000d0: b53f de3d ddae a6bd aafc c6bd 9798 bebd
000000e0: 599a a9bd fa90 883d d571 a4bd 4f3e eabd
000000f0: 76c1 fcbd 99b0 463c fb03 eb3d a41d 1c3d
00000100: 0c25 08be 0098 6f3d f9bf 0c3c a1f7 c43d
00000110: b146 a5bd 41b7 b93d 0a49 323d 0b6f cbbd
00000120: c194 03be c249 91bd 6388 5dbd ef40 b3bd
00000130: 1132 f73d 31b7 f0bc f38b fe3d 2ea0 ffbd
00000140: cfb9 253d b451 f2bc 7d20 fd3d 0ce1 bfbd
00000150: af43 7dbd c3dc ebbd c3ce 0f3e 9c89 ef3c
00000160: 6717 fc3d a330 073a dd44 0d3e d1f0 8cbd
00000170: 7703 4fbd 095b e7bd f49e a83d 4571 eebd
00000180: 01ce d2bd cb43 84bd 7d10 063e da81 c13d
00000190: ad40 7cbd c9c6 d8bd aaff e9bd 8bfc 09be
000001a0: e892 69bd f7cd a6bc 6de3 0e3e 1468 d53d
000001b0: 117d 403d 035b 64bc 72be cc3d 5b5c 6bbd
000001c0: 9066 8abd 8762 993d bec2 053d 9c27 1cbe
000001d0: dae5 b63d 8d0a b93d e2d7 df3c 0bf8 193c
000001e0: 154e 70bc 00cc 03be 1198 163e 3842 1fbe
000001f0: 94a3 dfbb 5e53 083d fcb7 23bd 638e 25bd
00000200: 3338 d13d 17f0 a33c 1175 53bd a8d8 1cbc
00000210: 7d5a f13d c39a 423d 4b8c 13bd 5ee7 24bc
00000220: 47e2 e03d 98b0 33be fa55 6ebc 8018 00be
00000230: f975 cbbd 579b a43d 0062 2bbe d114 953d
00000240: 61bb bf3d 9b13 0dbd 4e77 49bd f8b7 69bd
00000250: eb85 27bd 87db db3b 6ed3 113e beb4 673d
00000260: 3b75 de3d 1b1f 913b f24a 3a3e 0ab6 353c
00000270: 2ea9 dc3d 5482 54bb 355b 443e e1e9 1bbc
00000280: 5b23 8f3b 4599 743e 9917 1e3e a13a 0f3d
00000290: 3b90 4f3d a8d6 44ba cbb4 2a3e 52b8 503e
000002a0: e63f d33d fc65 acbb bae9 1a3e 63eb 003e
000002b0: 6f35 a93d 78fa 9b3d 25c2 083e 7e70 383e
000002c0: 6705 853e e8af 493e 5e14 9ab9 1d89 393e
000002d0: 0418 233e 1fba e13d ea73 dc3d e610 013e
000002e0: 0375 043e b0d3 303e 57bd f73d ba81 c3bc
000002f0: 60f0 1cbc a765 853d f958 183d 4564 473e
00000300: 2f93 473e 414c 893e ea48 c03d 289d 193e
00000310: 8427 033d c4ea 6b3e 9c43 1d3e ac7b 803c

rnn.bias_hh_l1 f4 [200]
0.23640545 0.06427754 0.008177075 0.17425169 0.05060257 0.015452697 0.13680369 0.013693388
0.21636257 0.026245734 0.21710992 0.13882007 -0.019216266 0.1700362 0.15284462 0.12866019
0.25394538 0.20137414 0.17220469 -0.017479353 0.0053111776 0.09331963 0.09067844 0.019972226
0.16500834 -0.03606049 0.08243381 0.062522486 -0.012440445 0.27457303 0.2623801 0.028881602
0.04657545 0.27825627 0.064630434 0.1927886 0.12121054 0.121970855 0.18026957 0.136812
0.067427374 0.15065184 0.15789273 0.004097058 0.20891915 0.1345952 0.06849286 0.24792396
0.028423501 0.19441937 0.0019840545 0.079041444 -0.028774042 -0.054349814 0.050745584 0.07305629
0.04612526 -0.03574771 0.077856936 -0.066536576 -0.10047833 0.103106014 -0.13466038 0.044708773
0.020214237 -0.04977789 -0.10419701 0.13715325 -0.0060391715 -0.07342563 -0.09824783 -0.13259512
0.07919331 0.033183884 0.035944436 -0.10454555 0.018880676 -0.107320026 0.101006836 -0.037280913
0.08875653 -0.011881265 -0.1375728 -0.09246019 0.11318103 0.035153914 -0.13543099 0.045623746
0.03724141 0.12588605 0.06958647 -0.0024954644 0.0743033 -0.054752402 0.0014082106 -0.07467372
0.121226296 -0.0698229 0.0215584 0.04126232 0.17497508 0.04698827 -0.087821886 -0.06881727
0.092257425 0.020570565 0.034803003 0.02320251 0.010859523 -0.020602737 -0.008697439 -0.056063734
-0.077506155 0.12912972 0.118516594 -0.14018323 -0.056271236 0.030060923 -0.05945387 -0.12267836
0.17983435 -0.13392982 0.13277148 0.0031453655 0.16557762 0.11794192 0.012135033 0.04437033
0.10233474 -0.09444964 -0.106737845 -0.11254391 0.08093047 -0.14546299 0.07150453 -0.12081341
-0.04876086 -0.0448639 -0.010887352 0.01357242 0.10713668 0.021553038 -8.0839105e-05 -0.1154692
-0.032955013 0.03576621 0.044579703 0.030155256 0.06706137 -0.06392615 0.28604132 0.14840384
0.12187513 0.14672072 0.018415965 0.1410177 0.13765109 -0.015251594 0.1720389 0.23555116
0.18533939 0.06960025 0.16488151 0.16504858 0.25638497 0.15390699 0.14608276 0.16636081
0.2001874 0.14972168 0.0122879855 0.16949898 0.13519734 0.15675706 0.23062274 0.0058460184
0.06301086 0.014973296 0.25051785 0.22776505 0.1999438 0.016139315 -0.018178098 0.09649846
0.10548359 -0.024695143 0.22471392 0.1683031 -0.011506265 0.25694826 0.1831613 0.066668645
0.005254874 0.23735431 0.027725661 0.25569636 0.017740881 0.2218958 0.12480131 0.18409146
00000000: 4514 723e f1a3 833d 23f9 053c 096f 323e
00000010: a444 4f3d 4f2d 7d3c 4416 0c3e 3b5a 603c
00000020: 268e 5d3e 4b01 d73c 1052 5e3e d926 0e3e
00000030: 6e6b 9dbc f81d 2e3e 4d83 1c3e 7fbf 033e
00000040: 2105 823e 0635 4e3e 6d56 303e dc30 8fbc
00000050: 6309 ae3b 5d1e bf3d 9eb5 b93d cb9c a33c
00000060: f2f7 283e 2ab4 13bd 0fd3 a83d ca0b 803d
00000070: 02d3 4bbc d694 8c3e af56 863e 1c99 ec3c
00000080: e6c5 3e3d 9b77 8e3e f65c 843d 606a 453e
00000090: 3b3d f83d dbcb f93d 9698 383e 7218 0c3e
000000a0: 5d17 8a3d 7a44 1a3e a2ae 213e 9d40 863b
000000b0: e7ee 553e 53d3 093e fc45 8c3d c7df 7d3e
000000c0: 67d8 e83c df15 473e e906 023b 7be0 a13d
000000d0: 8ab7 ebbc e99d 5ebd 9ada 4f3d 899e 953d
000000e0: d7ed 3c3d 316c 12bd 7573 9f3d 5444 88bd
000000f0: 95c7 cdbd 3f29 d33d 69e4 09be 8c20 373d
00000100: 5498 a53c e7e3 4bbd 3e65 d5bd e771 0c3e
00000110: 3ee4 c5bb 2d60 96bd 2936 c9bd 04c7 07be
00000120: 1a30 a23d d3eb 073d 793a 133d fa1b d6bd
00000130: a6ab 9a3c 9aca dbbd acdc ce3d dfb3 18bd
00000140: fcc5 b53d a3a9 42bc e2df 0cbe c55b bdbd
00000150: 75cb e73d 8dfd 0f3d 6cae 0abe f7df 3a3d
00000160: 738a 183d 46e8 003e 5a83 8e3d f28a 23bb
00000170: 542c 983d 0e44 60bd b593 b83a 89ee 98bd
00000180: 7e45 f83d 4fff 8ebd 3e9b b03c ae02 293d
00000190: ab2c 333e c676 403d f6db b3bd 12f0 8cbd
000001a0: 76f1 bc3d 9a83 a83c 988d 0e3d 3113 be3c
000001b0: 24ec 313c 12c7 a8bc b47f 0ebc 16a3 65bd
000001c0: 8cbb 9ebd 953a 043e d4b8 f23d 318c 0fbe
000001d0: ab7c 66bd 5342 f63c e785 73bd cb3e fbbd
000001e0: 7f26 383e e624 09be 3ff5 073e 7a22 4e3b
000001f0: 2e8d 293e 898b f13d 04d2 463c aabd 353d
00000200: e094 d13d d06e c1bd 5f99 dabd 6c7d e6bd
00000210: e0be a53d 40f4 14be f870 923d 056d f7bd
00000220: 78b9 47bd 35c3 37bd dd60 32bc db5e 5e3c
00000230: 7a6a db3d ff8f b03c 2a88 a9b8 1e7b ecbd
00000240: d6fb 06bd 977f 123d 3599 363d 2808 f73c
00000250: 7957 893d b7eb 82bd 0274 923e 2df7 173e
00000260: ab99 f93d f53d 163e 14dd 963c f266 103e
00000270: 68f4 0c3e d2e1 79bc f72a 303e 5334 713e
00000280: 9cc9 3d3e 938a 8e3d b3d6 283e 7f02 293e
00000290: e444 833e cb99 1d3e b896 153e 7d5a 2a3e
000002a0: edfd 4c3e a450 193e 8c53 493c 2491 2d3e
000002b0: 2c71 0a3e ec84 203e 5e28 6c3e f58f bf3b
000002c0: d60b 813d 8e52 753c e043 803e 3e3b 693e
000002d0: 11be 4c3e 9936 843c 3cea 94bc fca0 c53d
000002e0: c807 d83d 784d cabc 681b 663e a657 2c3e
000002f0: c684 3cbc b98e 833e a38e 3b3e 9289 883d
00000300: 1431 ac3b 020d 733e ed20 e33c a2ea 823e
00000310: 5355 913c a738 633e d497 ff3d 7982 3c3e

fc.weight f4 [1, 50]
-0.25672835 -0.44380307 0.435914 0.16753203 0.41124082 -0.17894387 -0.15153638 0.39887965
0.4528669 -0.40556496 -0.2545166 0.16809942 -0.34068143 -0.2761519 -0.36117002 0.21116175
0.3165778 -0.3204354 -0.34380347 0.4065878 -0.21186522 0.34947234 -0.22229226 0.2739418
-0.21665777 0.19986397 -0.18140444 0.25188354 -0.282575 0.50115997 0.23639281 0.14934677
0.10469746 0.30091497 0.22639771 -0.44342664 -0.44695276 0.2630791 0.43052375 0.14484575
-0.43607047 0.20456791 0.34696326 0.38371405 0.21875755 -0.199622 -0.16211571 -0.33408636
0.29763982 -0.43944865
00000000: e671 83be 283a e3be 1f30 df3e 848d 2b3e
00000010: 288e d23e 103d 37be 5a2c 1bbe f439 cc3e
00000020: 2cde e73e 36a6 cfbe 0050 82be 4122 2c3e
00000030: cc6d aebe c863 8dbe 47eb b8be c93a 583e
00000040: 7c16 a23e 1c10 a4be 0207 b0be 472c d03e
00000050: 32f3 58be 0aee b23e 95a0 63be 1a42 8c3e
00000060: 89db 5dbe 24a9 4c3e 16c2 39be e1f6 803e
00000070: acad 90be 054c 003f f510 723e 5cee 183e
00000080: 9f6b d63d 8711 9a3e cdd4 673e d108 e3be
00000090: fed6 e4be 4eb2 863e 9c6d dc3e 7252 143e
000000a0: a144 dfbe 407a 513e 2ba5 b13e 2b76 c43e
000000b0: fb01 603e b669 4cbe a901 26be 5e0d abbe
000000c0: 3f64 983e 6aff e0be
